{
  "class_name": "Sequential",
  "config": {
    "name": "sequential_3",
    "layers": [
      {
        "class_name": "InputLayer",
        "config": {
          "batch_input_shape": [
            null,
            32
          ],
          "dtype": "float32",
          "sparse": false,
          "ragged": false,
          "name": "dense_12_input"
        }
      },
      {
        "class_name": "Dense",
        "config": {
          "name": "dense_12",
          "trainable": true,
          "dtype": "float32",
          "units": 64,
          "activation": "relu",
          "use_bias": true,
          "kernel_initializer": {
            "class_name": "GlorotUniform",
            "config": {
              "seed": null
            }
          },
          "bias_initializer": {
            "class_name": "Zeros",
            "config": {}
          },
          "kernel_regularizer": null,
          "bias_regularizer": null,
          "activity_regularizer": null,
          "kernel_constraint": null,
          "bias_constraint": null
        },
        "weights": [
          [
            … "bias": [
          … "class_name": "Dense",
        "config": {
          "name": "dense_13",
          "trainable": true,
          "dtype": "float32",
          "units": 64,
          "activation": "relu",
          "use_bias": true,
          "kernel_initializer": {
            "class_name": "GlorotUniform",
            "config": {
              "seed": null
            }
          },
          "bias_initializer": {
            "class_name": "Zeros",
            "config": {}
          },
          "kernel_regularizer": null,
          "bias_regularizer": null,
          "activity_regularizer": null,
          "kernel_constraint": null,
          "bias_constraint": null
        },
        "weights": [
          [
            … "bias": [
          … "class_name": "Dense",
        "config": {
          "name": "latent",
          "trainable": true,
          "dtype": "float32",
          "units": 8,
          "activation": "sigmoid",
          "use_bias": true,
          "kernel_initializer": {
            "class_name": "GlorotUniform",
            "config": {
              "seed": null
            }
          },
          "bias_initializer": {
            "class_name": "Zeros",
            "config": {}
          },
          "kernel_regularizer": null,
          "bias_regularizer": null,
          "activity_regularizer": null,
          "kernel_constraint": null,
          "bias_constraint": null
        },
        "weights": [
          [
            … "bias": [
          -0.049597058445215225,
          -0.005641871597617865,
          0.4946601986885071,
          0.12221509963274002,
          0.18664057552814484,
          0.0322904959321022,
          0.5472724437713623,
          0.01921035163104534
        ]
      },
      {
        "class_name": "Dense",
        "config": {
          "name": "decoder",
          "trainable": true,
          "dtype": "float32",
          "units": 64,
          "activation": "relu",
          "use_bias": true,
          "kernel_initializer": {
            "class_name": "GlorotUniform",
            "config": {
              "seed": null
            }
          },
          "bias_initializer": {
            "class_name": "Zeros",
            "config": {}
          },
          "kernel_regularizer": null,
          "bias_regularizer": null,
          "activity_regularizer": null,
          "kernel_constraint": null,
          "bias_constraint": null
        },
        "weights": [
          [
            … "bias": [
          … "class_name": "Dense",
        "config": {
          "name": "dense_14",
          "trainable": true,
          "dtype": "float32",
          "units": 64,
          "activation": "relu",
          "use_bias": true,
          "kernel_initializer": {
            "class_name": "GlorotUniform",
            "config": {
              "seed": null
            }
          },
          "bias_initializer": {
            "class_name": "Zeros",
            "config": {}
          },
          "kernel_regularizer": null,
          "bias_regularizer": null,
          "activity_regularizer": null,
          "kernel_constraint": null,
          "bias_constraint": null
        },
        "weights": [
          [
            … "bias": [
          … "class_name": "Dense",
        "config": {
          "name": "dense_15",
          "trainable": true,
          "dtype": "float32",
          "units": 32,
          "activation": "sigmoid",
          "use_bias": true,
          "kernel_initializer": {
            "class_name": "GlorotUniform",
            "config": {
              "seed": null
            }
          },
          "bias_initializer": {
            "class_name": "Zeros",
            "config": {}
          },
          "kernel_regularizer": null,
          "bias_regularizer": null,
          "activity_regularizer": null,
          "kernel_constraint": null,
          "bias_constraint": null
        },
        "weights": [
          [
            … "bias": [
          … "keras_version": "2.12.0",
  "backend": "tensorflow",
  "width": 8,
  "height": 4
}