{
  "class_name": "Sequential",
  "config": {
    "name": "sequential_2",
    "layers": [
      {
        "class_name": "InputLayer",
        "config": {
          "batch_input_shape": [
            null,
            32
          ],
          "dtype": "float32",
          "sparse": false,
          "ragged": false,
          "name": "dense_8_input"
        }
      },
      {
        "class_name": "Dense",
        "config": {
          "name": "dense_8",
          "trainable": true,
          "dtype": "float32",
          "units": 64,
          "activation": "relu",
          "use_bias": true,
          "kernel_initializer": {
            "class_name": "GlorotUniform",
            "config": {
              "seed": null
            }
          },
          "bias_initializer": {
            "class_name": "Zeros",
            "config": {}
          },
          "kernel_regularizer": null,
          "bias_regularizer": null,
          "activity_regularizer": null,
          "kernel_constraint": null,
          "bias_constraint": null
        },
        "weights": [
          [
            … "bias": [
          … "class_name": "Dense",
        "config": {
          "name": "dense_9",
          "trainable": true,
          "dtype": "float32",
          "units": 64,
          "activation": "relu",
          "use_bias": true,
          "kernel_initializer": {
            "class_name": "GlorotUniform",
            "config": {
              "seed": null
            }
          },
          "bias_initializer": {
            "class_name": "Zeros",
            "config": {}
          },
          "kernel_regularizer": null,
          "bias_regularizer": null,
          "activity_regularizer": null,
          "kernel_constraint": null,
          "bias_constraint": null
        },
        "weights": [
          [
            … "bias": [
          … "class_name": "Dense",
        "config": {
          "name": "latent",
          "trainable": true,
          "dtype": "float32",
          "units": 4,
          "activation": "sigmoid",
          "use_bias": true,
          "kernel_initializer": {
            "class_name": "GlorotUniform",
            "config": {
              "seed": null
            }
          },
          "bias_initializer": {
            "class_name": "Zeros",
            "config": {}
          },
          "kernel_regularizer": null,
          "bias_regularizer": null,
          "activity_regularizer": null,
          "kernel_constraint": null,
          "bias_constraint": null
        },
        "weights": [
          [
            … "bias": [
          0.08950554579496384,
          -0.05657312273979187,
          0.14800363779067993,
          -0.09610500186681747
        ]
      },
      {
        "class_name": "Dense",
        "config": {
          "name": "decoder",
          "trainable": true,
          "dtype": "float32",
          "units": 64,
          "activation": "relu",
          "use_bias": true,
          "kernel_initializer": {
            "class_name": "GlorotUniform",
            "config": {
              "seed": null
            }
          },
          "bias_initializer": {
            "class_name": "Zeros",
            "config": {}
          },
          "kernel_regularizer": null,
          "bias_regularizer": null,
          "activity_regularizer": null,
          "kernel_constraint": null,
          "bias_constraint": null
        },
        "weights": [
          [
            … "bias": [
          … "class_name": "Dense",
        "config": {
          "name": "dense_10",
          "trainable": true,
          "dtype": "float32",
          "units": 64,
          "activation": "relu",
          "use_bias": true,
          "kernel_initializer": {
            "class_name": "GlorotUniform",
            "config": {
              "seed": null
            }
          },
          "bias_initializer": {
            "class_name": "Zeros",
            "config": {}
          },
          "kernel_regularizer": null,
          "bias_regularizer": null,
          "activity_regularizer": null,
          "kernel_constraint": null,
          "bias_constraint": null
        },
        "weights": [
          [
            … "bias": [
          … "class_name": "Dense",
        "config": {
          "name": "dense_11",
          "trainable": true,
          "dtype": "float32",
          "units": 32,
          "activation": "sigmoid",
          "use_bias": true,
          "kernel_initializer": {
            "class_name": "GlorotUniform",
            "config": {
              "seed": null
            }
          },
          "bias_initializer": {
            "class_name": "Zeros",
            "config": {}
          },
          "kernel_regularizer": null,
          "bias_regularizer": null,
          "activity_regularizer": null,
          "kernel_constraint": null,
          "bias_constraint": null
        },
        "weights": [
          [
            … "bias": [
          … "keras_version": "2.12.0",
  "backend": "tensorflow",
  "width": 8,
  "height": 4
}